…
stom_variational_layer_1.\n","Model: \"model_2\"\n","__________________________________________________________________________________________________\n"," Layer (type)                   Output Shape         Param #     Connected to                     \n","==================================================================================================\n"," input_2 (InputLayer)           [(None, 28, 28, 1)]  0           []                               \n","                                                                                                  \n"," conv2d (Conv2D)                (None, 28, 28, 32)   320         ['input_2[0][0]']                \n","                                                                                                  \n"," conv2d_1 (Conv2D)              (None, 14, 14, 64)   18496       ['conv2d[0][0]']                 \n","                                                                                                  \n"," conv2d_2 (Conv2D)              (None, 14, 14, 64)   36928       ['conv2d_1[0][0]']               \n","                                                                                                  \n"," conv2d_3 (Conv2D)              (None, 14, 14, 64)   36928       ['conv2d_2[0][0]']               \n","                                                                                                  \n"," flatten (Flatten)              (None, 12544)        0           ['conv2d_3[0][0]']               \n","                                                                                                  \n"," dense (Dense)                  (None, 32)           401440      ['flatten[0][0]']                \n","                                                                                                  \n"," dense_1 (Dense)                (None, 2)            66          ['dense[0][0]']                  \n","                                                                                                  \n"," dense_2 (Dense)                (None, 2)            66          ['dense[0][0]']                  \n","                                                                                                  \n"," lambda_1 (Lambda)              (None, 2)            0           ['dense_1[0][0]',                \n","                                                                  'dense_2[0][0]']                \n","                                                                                                  \n"," model (Functional)             (None, 28, 28, 1)    56385       ['lambda_1[0][0]']               \n","                                                                                                  \n"," custom_variational_layer_1 (Cu  (None, 28, 28, 1)   0           ['input_2[0][0]',                \n"," stomVariationalLayer)                                            'model[0][0]']                  \n","                                                                                                  \n","==================================================================================================\n","Total params: 550,629\n","Trainable params
…
isplayName":"김진우","userId":"12971138652345879224"},"user_tz":-540},"id":"oKD_WtlU66_4","outputId":"1f74486f-2262-485f-d8db-a9195d0a4352"},"outputs":[{"name":"stdout","output_type":"stream","text":["Model: \"model_8\"\n","_________________________________________________________________\n"," Layer (type)                Output Shape              Param #   \n","=================================================================\n"," input_12 (InputLayer)       [(None, 32)]              0         \n","                                                                 \n"," dense_12 (Dense)            (None, 32768)             1081344   \n","                                                                 \n"," leaky_re_lu_29 (LeakyReLU)  (None, 32768)             0         \n","                                                                 \n"," reshape_4 (Reshape)         (None, 16, 16, 128)       0         \n","                                                                 \n"," conv2d_33 (Conv2D)          (None, 16, 16, 256)       819456    \n","                                                                 \n"," leaky_re_lu_30 (LeakyReLU)  (None, 16, 16, 256)       0         \n","                                                                 \n"," conv2d_34 (Conv2D)          (None, 16, 16, 256)       1638656   \n","                                                                 \n"," leaky_re_lu_31 (LeakyReLU)  (None, 16, 16, 256)       0         \n","                                                                 \n"," conv2d_35 (Conv2D)          (None, 16, 16, 256)       1638656   \n","                                                                 \n"," leaky_re_lu_32 (LeakyReLU)  (None, 16, 16, 256)       0         \n","                                                                 \n"," conv2d_36 (Conv2D)          (None, 16, 16, 3)         37635     \n","                                                                 \n","=================================================================\n","Total params: 5,215,747\n","Trainable params: 5,215,747\n","Non-trainable params: 0\n","_________________________________________________________________\n"]}],"source":["import keras\n","from keras import layers\n","import numpy as np\n","\n","laten
…
"source":["### 8-5-4 판별자"]},{"cell_type":"code","execution_count":null,"metadata":{"colab":{"background_save":true},"id":"cz5skUenEimD"},"outputs":[{"name":"stdout","output_type":"stream","text":["Model: \"model_13\"\n","_________________________________________________________________\n"," Layer (type)                Output Shape              Param #   \n","=================================================================\n"," input_17 (InputLayer)       [(None, 32, 32, 3)]       0         \n","                                                                 \n"," conv2d_53 (Conv2D)          (None, 30, 30, 128)       3584      \n","                                                                 \n"," leaky_re_lu_49 (LeakyReLU)  (None, 30, 30, 128)       0         \n","                                                                 \n"," conv2d_54 (Conv2D)          (None, 14, 14, 128)       262272    \n","                                                                 \n"," leaky_re_lu_50 (LeakyReLU)  (None, 14, 14, 128)       0         \n","                                                                 \n"," conv2d_55 (Conv2D)          (None, 6, 6, 128)         262272    \n","                                                                 \n"," leaky_re_lu_51 (LeakyReLU)  (None, 6, 6, 128)         0         \n","                                                                 \n"," conv2d_56 (Conv2D)          (None, 2, 2, 128)         262272    \n","                                                                 \n"," leaky_re_lu_52 (LeakyReLU)  (None, 2, 2, 128)         0         \n","                                                                 \n"," flatten_10 (Flatten)        (None, 512)               0         \n","                                                                 \n"," dropout_9 (Dropout)         (None, 512)               0         \n","                                                                 \n"," dense_17 (Dense)            (None, 1)                 513       \n","                                                                 \n","=================================================================\n","Total params: 790,913\n","Trainable params: 790,913\n","Non-trainable params: 0\n","_________________________________________________________________\n","Model: \"model_13\"\n","_________________________________________________________________\n"," Layer (type)                Output Shape              Param #   \n","=================================================================\n"," input_17 (InputLayer)       [(None, 32, 32, 3)]       0         \n","                                                                 \n"," conv2d_53 (Conv2D)          (None, 30, 30, 128)       3584      \n","                                                                 \n"," leaky_re_lu_49 (LeakyReLU)  (None, 30, 30, 128)       0         \n","                                                                 \n"," conv2d_54 (Conv2D)          (None, 14, 14, 128)       262272    \n","                                                                 \n"," leaky_re_lu_50 (LeakyReLU)  (None, 14, 14, 128)       0         \n","                                                                 \n"," conv2d_55 (Conv2D)          (None, 6, 6, 128)         262272    \n","                                                                 \n"," leaky_re_lu_51 (LeakyReLU)  (None, 6, 6, 128)         0         \n","                                                                 \n"," conv2d_56 (Conv2D)          (None, 2, 2, 128)         262272    \n","                                                                 \n"," leaky_re_lu_52 (LeakyReLU)  (None, 2, 2, 128)         0         \n","                                                                 \n"," flatten_10 (Flatten)        (None, 512)               0         \n","                                                                 \n"," dropout_9 (Dropout)         (None, 512)               0         \n","                                                                 \n"," dense_17 (Dense)            (None, 1)                 513       \n","                                                                 \n","=================================================================\n","Total params: 790,913\n","Trainable params: 790,913\n","Non-trainable params: 0\n","_________________________________________________________________\n"]},{"name":"stderr","output_type":"stream","text":["/usr/local/lib/python3.7/dist-packages/keras
…
